models/Cifar10_CNN_quant.tflite (tflite, 92208 bytes, 5 tensors)

model/dense/MatMul i1 [10, 1600] scale=0.0014956992 zero_point=0
0	0xcb	-0.079272054
1	0xdb	-0.055340867
2	0xf9	-0.010469894
3	0x01	0.0014956992
4	0xf3	-0.01944409
5	0x09	0.013461293
6	0xf5	-0.01645269
7	0x2c	0.06581076
8	0x12	0.026922585
9	0x10	0.023931187
10	0x05	0.007478496
11	0xd6	-0.06281936
12	0x15	0.03140968
13	0x20	0.047862373
14	0xef	-0.025426885
15	0xc7	-0.085254855
16	0xe4	-0.041879576
17	0xe3	-0.043375276
18	0x22	0.05085377
19	0xdd	-0.05234947
20	0xe6	-0.03888818
21	0x07	0.010469894
22	0xf3	-0.01944409
23	0x10	0.023931187
24	0x34	0.07777636
25	0xe3	-0.043375276
26	0xd7	-0.061323665
27	0xe9	-0.03440108
28	0xfb	-0.007478496
29	0x53	0.124143034
30	0x13	0.028418284
31	0x06	0.0089741945
32	0x07	0.010469894
33	0x05	0.007478496
34	0xfa	-0.0089741945
35	0x42	0.09871615
36	0x14	0.029913984
37	0xe1	-0.046366673
38	0xe3	-0.043375276
39	0x04	0.0059827967
40	0x0b	0.01645269
41	0x20	0.047862373
42	0x19	0.03739248
43	0xc7	-0.085254855
44	0xe4	-0.041879576
45	0x05	0.007478496
46	0xeb	-0.03140968
47	0xd1	-0.07029786
48	0x2f	0.07029786
49	0xc9	-0.082263455
50	0x2f	0.07029786
51	0x2c	0.06581076
52	0x14	0.029913984
53	0xd1	-0.07029786
54	0xe2	-0.044870976
55	0x20	0.047862373
56	0x0d	0.01944409
57	0xc3	-0.09123765
58	0xdb	-0.055340867
59	0xf8	-0.011965593
60	0xd8	-0.05982797
61	0x41	0.09722044
62	0x27	0.05833227
63	0x2a	0.06281936
64	0xad	-0.124143034
65	0xe1	-0.046366673
66	0x27	0.05833227
67	0xfb	-0.007478496
68	0x15	0.03140968
69	0x06	0.0089741945
70	0x04	0.0059827967
71	0xff	-0.0014956992
72	0x1c	0.041879576
73	0x0f	0.022435488
74	0xe5	-0.04038388
75	0xe9	-0.03440108
76	0x1e	0.044870976
77	0x03	0.0044870973
78	0xf4	-0.017948389
79	0xe8	-0.035896778
80	0xed	-0.028418284
81	0xdf	-0.049358074
82	0x21	0.049358074
83	0x17	0.03440108
84	0xed	-0.028418284
85	0xfe	-0.0029913983
86	0xfb	-0.007478496
87	0xe7	-0.03739248
88	0x0f	0.022435488
89	0xdf	-0.049358074
90	0xea	-0.03290538
91	0x19	0.03739248
92	0xf5	-0.01645269
93	0x1d	0.043375276
94	0x2c	0.06581076
95	0xe8	-0.035896778
96	0xfa	-0.0089741945
97	0xd9	-0.05833227
98	0xde	-0.05085377
99	0xf2	-0.020939788
100	0xf4	-0.017948389
101	0x17	0.03440108
102	0xf0	-0.023931187
103	0xf1	-0.022435488
104	0x2b	0.064315066
105	0x0b	0.01645269
106	0x23	0.05234947
107	0xec	-0.029913984
108	0xfe	-0.0029913983
109	0xc7	-0.085254855
110	0x38	0.08375915
111	0xf7	-0.013461293
112	0xe7	-0.03739248
113	0xf9	-0.010469894
114	0x3f	0.09422905
115	0xe1	-0.046366673
116	0xf7	-0.013461293
117	0xe5	-0.04038388
118	0x14	0.029913984
119	0xf4	-0.017948389
120	0xe6	-0.03888818
121	0x02	0.0029913983
122	0xfe	-0.0029913983
123	0x11	0.025426885
124	0xf8	-0.011965593
125	0x14	0.029913984
126	0xf5	-0.01645269
127	0xf8	-0.011965593
128	0xe4	-0.041879576
129	0xf1	-0.022435488
130	0xd6	-0.06281936
131	0xdb	-0.055340867
132	0x18	0.035896778
133	0xbc	-0.10170754
134	0x09	0.013461293
135	0x26	0.056836568
136	0xe3	-0.043375276
137	0x0e	0.020939788
138	0x0f	0.022435488
139	0x26	0.056836568
140	0x04	0.0059827967
141	0xd5	-0.064315066
142	0x04	0.0059827967
143	0xc8	-0.08375915
144	0x0b	0.01645269
145	0xea	-0.03290538
146	0x1e	0.044870976
147	0x0a	0.014956992
148	0xd9	-0.05833227
149	0xfa	-0.0089741945
150	0xf9	-0.010469894
151	0x16	0.03290538
152	0x05	0.007478496
153	0xf8	-0.011965593
154	0xe6	-0.03888818
155	0x06	0.0089741945
156	0x21	0.049358074
157	0x28	0.05982797
158	0x0d	0.01944409
159	0xd3	-0.06730646
160	0xe0	-0.047862373
161	0xda	-0.056836568
162	0xd3	-0.06730646
163	0x1a	0.03888818
164	0x03	0.0044870973
165	0xe0	-0.047862373
166	0xd6	-0.06281936
167	0x24	0.05384517
168	0xf9	-0.010469894
169	0xfe	-0.0029913983
170	0xe1	-0.046366673
171	0x14	0.029913984
172	0xec	-0.029913984
173	0xe3	-0.043375276
174	0xbe	-0.09871615
175	0xd3	-0.06730646
176	0xf7	-0.013461293
177	0xe1	-0.046366673
178	0x01	0.0014956992
179	0x06	0.0089741945
180	0x00	0.0
181	0xd0	-0.071793556
182	0xe7	-0.03739248
183	0x20	0.047862373
184	0xe5	-0.04038388
185	0xf8	-0.011965593
186	0xdf	-0.049358074
187	0x08	0.011965593
188	0xe2	-0.044870976
189	0xfc	-0.0059827967
190	0x19	0.03739248
191	0xfd	-0.0044870973
192	0xe5	-0.04038388
193	0xe4	-0.041879576
194	0xe8	-0.035896778
195	0xba	-0.10469894
196	0x3b	0.08824625
197	0x1a	0.03888818
198	0x42	0.09871615
199	0x2b	0.064315066
200	0x1d	0.043375276
201	0xef	-0.025426885
202	0xf6	-0.014956992
203	0x0c	0.017948389
204	0x1f	0.046366673
205	0xf6	-0.014956992
206	0x0a	0.014956992
207	0x01	0.0014956992
208	0x15	0.03140968
209	0xfb	-0.007478496
210	0xe0	-0.047862373
211	0x1f	0.046366673
212	0xeb	-0.03140968
213	0x1b	0.04038388
214	0x0f	0.022435488
215	0x21	0.049358074
216	0xfa	-0.0089741945
217	0x20	0.047862373
218	0x3d	0.09123765
219	0x25	0.055340867
220	0x39	0.085254855
221	0x20	0.047862373
222	0x09	0.013461293
223	0x09	0.013461293
224	0xe6	-0.03888818
225	0xd4	-0.06581076
226	0x2e	0.06880216
227	0xd4	-0.06581076
228	0xfd	-0.0044870973
229	0xd3	-0.06730646
230	0x08	0.011965593
231	0xfe	-0.0029913983
232	0x20	0.047862373
233	0xdb	-0.055340867
234	0x40	0.09572475
235	0xe9	-0.03440108
236	0xdd	-0.05234947
237	0xde	-0.05085377
238	0xd2	-0.06880216
239	0xfe	-0.0029913983
240	0x1f	0.046366673
241	0xfe	-0.0029913983
242	0xfd	-0.0044870973
243	0xe5	-0.04038388
244	0x12	0.026922585
245	0x09	0.013461293
246	0xf7	-0.013461293
247	0x06	0.0089741945
248	0x09	0.013461293
249	0x1b	0.04038388
250	0xbf	-0.09722044
251	0x27	0.05833227
252	0xf3	-0.01944409
253	0x0b	0.01645269
254	0x12	0.026922585
255	0xcc	-0.07777636

model/conv2d/Conv2D i1 [32, 3, 3, 3]
0	0xf5	-11
1	0x09	9
2	0x5b	91
3	0x54	84
4	0x7f	127
5	0xc6	-58
6	0xbb	-69
7	0x6f	111
8	0x8a	-118
9	0x36	54
10	0x4d	77
11	0x51	81
12	0xfe	-2
13	0xe3	-29
14	0x70	112
15	0x6c	108
16	0xa1	-95
17	0x02	2
18	0x9e	-98
19	0x04	4
20	0xa2	-94
21	0xe8	-24
22	0xef	-17
23	0x1a	26
24	0xed	-19
25	0x8b	-117
26	0x0c	12
27	0x52	82
28	0xcc	-52
29	0xbf	-65
30	0xd0	-48
31	0x81	-127
32	0xb1	-79
33	0xa2	-94
34	0x9c	-100
35	0xc8	-56
36	0xb6	-74
37	0x9e	-98
38	0x96	-106
39	0xbd	-67
40	0x09	9
41	0x08	8
42	0x1c	28
43	0x39	57
44	0xec	-20
45	0x42	66
46	0xe7	-25
47	0x62	98
48	0xca	-54
49	0xd5	-43
50	0x5b	91
51	0x58	88
52	0x3b	59
53	0x5f	95
54	0x6a	106
55	0x5b	91
56	0x23	35
57	0x26	38
58	0x1b	27
59	0xde	-34
60	0x57	87
61	0xdd	-35
62	0xe4	-28
63	0x47	71
64	0x16	22
65	0xbd	-67
66	0x4a	74
67	0x2b	43
68	0x2c	44
69	0x1d	29
70	0x32	50
71	0xcf	-49
72	0x83	-125
73	0x85	-123
74	0x08	8
75	0x18	24
76	0xeb	-21
77	0xec	-20
78	0x81	-127
79	0x94	-108
80	0x60	96
81	0x77	119
82	0xff	-1
83	0xf9	-7
84	0xc2	-62
85	0xe0	-32
86	0x2c	44
87	0x9c	-100
88	0x2a	42
89	0xc4	-60
90	0xde	-34
91	0x5a	90
92	0x2b	43
93	0x3b	59
94	0xeb	-21
95	0x3c	60
96	0x81	-127
97	0xbf	-65
98	0x81	-127
99	0x6b	107
100	0x40	64
101	0x6d	109
102	0x70	112
103	0xa8	-88
104	0xe5	-27
105	0x93	-109
106	0x32	50
107	0xce	-50
108	0x87	-121
109	0x00	0
110	0x5f	95
111	0x05	5
112	0xec	-20
113	0x9b	-101
114	0xc3	-61
115	0x0c	12
116	0xa7	-89
117	0x1c	28
118	0xda	-38
119	0xdd	-35
120	0x71	113
121	0xbf	-65
122	0xb7	-73
123	0x46	70
124	0x91	-111
125	0xfd	-3
126	0x7f	127
127	0xdb	-37
128	0x93	-109
129	0x2d	45
130	0x09	9
131	0x18	24
132	0xa8	-88
133	0x6f	111
134	0xab	-85
135	0xcd	-51
136	0x9d	-99
137	0x3d	61
138	0x88	-120
139	0xcd	-51
140	0x81	-127
141	0xb0	-80
142	0x1f	31
143	0x57	87
144	0x6f	111
145	0x18	24
146	0x3c	60
147	0x59	89
148	0x6c	108
149	0x1f	31
150	0xb5	-75
151	0x25	37
152	0xec	-20
153	0xdd	-35
154	0xd3	-45
155	0x48	72
156	0x5e	94
157	0x2e	46
158	0x95	-107
159	0xcb	-53
160	0xe0	-32
161	0x63	99
162	0x81	-127
163	0x39	57
164	0x85	-123
165	0x45	69
166	0xe0	-32
167	0xbf	-65
168	0x34	52
169	0x40	64
170	0x2b	43
171	0x0a	10
172	0xb9	-71
173	0xb5	-75
174	0x26	38
175	0xf6	-10
176	0xe4	-28
177	0x32	50
178	0x6a	106
179	0x14	20
180	0x45	69
181	0x17	23
182	0xc3	-61
183	0xcc	-52
184	0x45	69
185	0x10	16
186	0x3b	59
187	0x54	84
188	0x31	49
189	0x7a	122
190	0x45	69
191	0x38	56
192	0x81	-127
193	0x6c	108
194	0xc4	-60
195	0x9b	-101
196	0x09	9
197	0xaa	-86
198	0xaa	-86
199	0xaa	-86
200	0xbd	-67
201	0x00	0
202	0xcf	-49
203	0xeb	-21
204	0x3c	60
205	0xd5	-43
206	0x28	40
207	0x72	114
208	0xc1	-63
209	0x78	120
210	0x45	69
211	0xd3	-45
212	0x6c	108
213	0xad	-83
214	0x08	8
215	0xfd	-3
216	0xb1	-79
217	0xc6	-58
218	0x0b	11
219	0x2c	44
220	0xf6	-10
221	0xaf	-81
222	0x84	-124
223	0xe9	-23
224	0x81	-127
225	0xce	-50
226	0xf1	-15
227	0x7b	123
228	0x81	-127
229	0x7b	123
230	0x5c	92
231	0x4a	74
232	0x21	33
233	0xba	-70
234	0x2c	44
235	0x65	101
236	0xa5	-91
237	0xcc	-52
238	0x65	101
239	0x13	19
240	0x69	105
241	0xcc	-52
242	0x63	99
243	0x92	-110
244	0xe8	-24
245	0x8a	-118
246	0xab	-85
247	0x50	80
248	0xfa	-6
249	0xa6	-90
250	0x88	-120
251	0xce	-50
252	0xe3	-29
253	0xe9	-23
254	0x35	53
255	0x64	100

model/conv2d_1/Conv2D i1 [32, 3, 3, 32]
0	0x3a	58
1	0x45	69
2	0xf9	-7
3	0x1c	28
4	0xf2	-14
5	0xed	-19
6	0xd0	-48
7	0x19	25
8	0xcb	-53
9	0xf5	-11
10	0xf1	-15
11	0xc1	-63
12	0xce	-50
13	0xf2	-14
14	0xfd	-3
15	0x0d	13
16	0x04	4
17	0x25	37
18	0x26	38
19	0xe2	-30
20	0x3d	61
21	0xd3	-45
22	0xfe	-2
23	0xf0	-16
24	0x27	39
25	0xb5	-75
26	0x3f	63
27	0xda	-38
28	0xfc	-4
29	0x34	52
30	0xc3	-61
31	0x15	21
32	0xda	-38
33	0x07	7
34	0xe1	-31
35	0x0a	10
36	0x02	2
37	0xaa	-86
38	0xf5	-11
39	0xe2	-30
40	0xc6	-58
41	0x00	0
42	0x19	25
43	0xf5	-11
44	0x0e	14
45	0xcb	-53
46	0x3c	60
47	0xff	-1
48	0xd9	-39
49	0xc9	-55
50	0xfd	-3
51	0xdc	-36
52	0xc9	-55
53	0x06	6
54	0xde	-34
55	0xc2	-62
56	0xea	-22
57	0xca	-54
58	0xeb	-21
59	0xe7	-25
60	0x90	-112
61	0xca	-54
62	0xf8	-8
63	0xd7	-41
64	0xd5	-43
65	0x05	5
66	0xbb	-69
67	0xc1	-63
68	0xf6	-10
69	0x32	50
70	0x52	82
71	0x07	7
72	0x1e	30
73	0xd8	-40
74	0x01	1
75	0x19	25
76	0xd4	-44
77	0xcd	-51
78	0x0a	10
79	0xda	-38
80	0x5e	94
81	0x3a	58
82	0xd1	-47
83	0x12	18
84	0xbb	-69
85	0x01	1
86	0xc1	-63
87	0xfe	-2
88	0xef	-17
89	0x23	35
90	0xc9	-55
91	0x02	2
92	0x3b	59
93	0x00	0
94	0x2b	43
95	0xe6	-26
96	0x32	50
97	0xe6	-26
98	0x40	64
99	0xbf	-65
100	0xeb	-21
101	0xaa	-86
102	0x30	48
103	0xfd	-3
104	0xfe	-2
105	0xfa	-6
106	0xfb	-5
107	0x15	21
108	0xce	-50
109	0xb1	-79
110	0xde	-34
111	0x15	21
112	0xfa	-6
113	0x33	51
114	0x09	9
115	0xe2	-30
116	0x21	33
117	0x28	40
118	0x15	21
119	0xcc	-52
120	0xc5	-59
121	0x15	21
122	0xbb	-69
123	0xe2	-30
124	0xe7	-25
125	0x01	1
126	0x0c	12
127	0x1e	30
128	0x14	20
129	0x81	-127
130	0xd6	-42
131	0xed	-19
132	0xfe	-2
133	0xb9	-71
134	0x0a	10
135	0xf6	-10
136	0xea	-22
137	0x27	39
138	0x41	65
139	0xf2	-14
140	0x3b	59
141	0xff	-1
142	0x3c	60
143	0xc8	-56
144	0xc8	-56
145	0xc7	-57
146	0x21	33
147	0x00	0
148	0xe2	-30
149	0xf3	-13
150	0xcc	-52
151	0x13	19
152	0xf9	-7
153	0xc0	-64
154	0xf6	-10
155	0xb7	-73
156	0x03	3
157	0x04	4
158	0x08	8
159	0xfe	-2
160	0xce	-50
161	0xdd	-35
162	0x06	6
163	0x31	49
164	0xd8	-40
165	0x25	37
166	0x00	0
167	0x2b	43
168	0xda	-38
169	0xd4	-44
170	0x48	72
171	0x3e	62
172	0x99	-103
173	0x02	2
174	0x39	57
175	0xe7	-25
176	0x34	52
177	0xf5	-11
178	0xe4	-28
179	0xfb	-5
180	0x06	6
181	0xcc	-52
182	0xcd	-51
183	0xbc	-68
184	0xfa	-6
185	0xe0	-32
186	0xe1	-31
187	0x14	20
188	0x1c	28
189	0xba	-70
190	0x1d	29
191	0x2c	44
192	0xec	-20
193	0x33	51
194	0xc4	-60
195	0x3a	58
196	0xee	-18
197	0x05	5
198	0xd1	-47
199	0xb6	-74
200	0xda	-38
201	0x2c	44
202	0xdf	-33
203	0xd2	-46
204	0xca	-54
205	0x20	32
206	0xaa	-86
207	0xb6	-74
208	0x0b	11
209	0xc8	-56
210	0xd8	-40
211	0xd1	-47
212	0x28	40
213	0xb5	-75
214	0x39	57
215	0x0d	13
216	0x36	54
217	0xfb	-5
218	0x22	34
219	0x0b	11
220	0xea	-22
221	0xcc	-52
222	0x15	21
223	0xed	-19
224	0x1a	26
225	0xf2	-14
226	0xdf	-33
227	0x08	8
228	0x50	80
229	0xc4	-60
230	0x3f	63
231	0xc7	-57
232	0xbc	-68
233	0x43	67
234	0x19	25
235	0x12	18
236	0xb1	-79
237	0xd4	-44
238	0xf4	-12
239	0xf2	-14
240	0xd6	-42
241	0xc5	-59
242	0x25	37
243	0x40	64
244	0xdd	-35
245	0xca	-54
246	0xd1	-47
247	0x1a	26
248	0x20	32
249	0x02	2
250	0xd5	-43
251	0xca	-54
252	0xd9	-39
253	0xd8	-40
254	0x30	48
255	0x19	25

model/conv2d_2/Conv2D i1 [64, 3, 3, 32]
0	0x16	22
1	0xce	-50
2	0xc2	-62
3	0x49	73
4	0xb2	-78
5	0x1c	28
6	0xe8	-24
7	0xc0	-64
8	0x25	37
9	0xe9	-23
10	0x4e	78
11	0x4a	74
12	0x7f	127
13	0x31	49
14	0xfc	-4
15	0xe0	-32
16	0x02	2
17	0x2e	46
18	0xea	-22
19	0xe1	-31
20	0x22	34
21	0x16	22
22	0xcf	-49
23	0x10	16
24	0xbf	-65
25	0x15	21
26	0x18	24
27	0x23	35
28	0x37	55
29	0x02	2
30	0xc5	-59
31	0x0b	11
32	0xd7	-41
33	0x0b	11
34	0x21	33
35	0xd5	-43
36	0xd9	-39
37	0xcc	-52
38	0xed	-19
39	0xc5	-59
40	0x45	69
41	0x0b	11
42	0xe2	-30
43	0x09	9
44	0xc1	-63
45	0xc6	-58
46	0x35	53
47	0xd3	-45
48	0x4c	76
49	0x45	69
50	0x4c	76
51	0x42	66
52	0xd3	-45
53	0xf1	-15
54	0x19	25
55	0xbc	-68
56	0x43	67
57	0x46	70
58	0x21	33
59	0xca	-54
60	0x11	17
61	0xcb	-53
62	0x06	6
63	0xd9	-39
64	0x28	40
65	0x35	53
66	0xf7	-9
67	0x39	57
68	0x0d	13
69	0xd1	-47
70	0xe0	-32
71	0x2b	43
72	0xd3	-45
73	0xac	-84
74	0x12	18
75	0x20	32
76	0xc9	-55
77	0xf8	-8
78	0xf7	-9
79	0x05	5
80	0x3c	60
81	0xf8	-8
82	0x28	40
83	0x0d	13
84	0x12	18
85	0x53	83
86	0x05	5
87	0x1c	28
88	0xc5	-59
89	0xa6	-90
90	0x20	32
91	0xd7	-41
92	0x05	5
93	0xde	-34
94	0x03	3
95	0xf5	-11
96	0xcf	-49
97	0x06	6
98	0x1b	27
99	0x21	33
100	0xc8	-56
101	0x64	100
102	0xff	-1
103	0x1e	30
104	0xb3	-77
105	0xea	-22
106	0xd3	-45
107	0xc8	-56
108	0x18	24
109	0x0b	11
110	0xc7	-57
111	0x38	56
112	0x16	22
113	0x3a	58
114	0xc8	-56
115	0xdb	-37
116	0xc9	-55
117	0x0f	15
118	0x37	55
119	0xfc	-4
120	0x02	2
121	0x10	16
122	0x29	41
123	0x5e	94
124	0x2d	45
125	0x37	55
126	0x3e	62
127	0xe1	-31
128	0xd0	-48
129	0xc4	-60
130	0xe3	-29
131	0xe8	-24
132	0xe4	-28
133	0x0a	10
134	0xb7	-73
135	0x2b	43
136	0xd7	-41
137	0xf3	-13
138	0x44	68
139	0x3f	63
140	0x1d	29
141	0x37	55
142	0x06	6
143	0x34	52
144	0xaa	-86
145	0xf7	-9
146	0xe3	-29
147	0x59	89
148	0x01	1
149	0x57	87
150	0x0b	11
151	0xf1	-15
152	0xd0	-48
153	0x3f	63
154	0x3c	60
155	0x50	80
156	0xf1	-15
157	0x2d	45
158	0xc8	-56
159	0xc5	-59
160	0xd3	-45
161	0xd9	-39
162	0xdc	-36
163	0x1a	26
164	0xf0	-16
165	0xde	-34
166	0x46	70
167	0x03	3
168	0xb8	-72
169	0x07	7
170	0x0c	12
171	0xbb	-69
172	0xb4	-76
173	0x3e	62
174	0x1e	30
175	0x44	68
176	0x1d	29
177	0xa9	-87
178	0x17	23
179	0xac	-84
180	0xed	-19
181	0xc7	-57
182	0x24	36
183	0x04	4
184	0x10	16
185	0xdc	-36
186	0xf2	-14
187	0x34	52
188	0x34	52
189	0xd7	-41
190	0x18	24
191	0x07	7
192	0x01	1
193	0xbc	-68
194	0xb9	-71
195	0xe0	-32
196	0x09	9
197	0xfc	-4
198	0xd5	-43
199	0xdd	-35
200	0x1a	26
201	0xca	-54
202	0x08	8
203	0x22	34
204	0x00	0
205	0xfa	-6
206	0x0c	12
207	0x1f	31
208	0x12	18
209	0x33	51
210	0xd8	-40
211	0x51	81
212	0x4e	78
213	0x90	-112
214	0xec	-20
215	0xf2	-14
216	0xef	-17
217	0xe0	-32
218	0xb5	-75
219	0x54	84
220	0xe1	-31
221	0x3b	59
222	0xaf	-81
223	0xf3	-13
224	0x1c	28
225	0x00	0
226	0xea	-22
227	0xfc	-4
228	0x09	9
229	0x3a	58
230	0xd2	-46
231	0xe0	-32
232	0xc7	-57
233	0x06	6
234	0x28	40
235	0xaa	-86
236	0xcf	-49
237	0x22	34
238	0x48	72
239	0xc1	-63
240	0xf6	-10
241	0x22	34
242	0xda	-38
243	0xef	-17
244	0xd9	-39
245	0x3b	59
246	0x01	1
247	0x01	1
248	0xe2	-30
249	0x08	8
250	0xf0	-16
251	0xde	-34
252	0x0b	11
253	0x30	48
254	0xdb	-37
255	0x17	23

model/conv2d_3/Conv2D i1 [64, 3, 3, 64]
0	0xf2	-14
1	0xa7	-89
2	0x1a	26
3	0xbc	-68
4	0x3e	62
5	0x1d	29
6	0xc1	-63
7	0xd4	-44
8	0xf3	-13
9	0x1a	26
10	0xb9	-71
11	0xc9	-55
12	0xdf	-33
13	0xf0	-16
14	0x1d	29
15	0x2a	42
16	0x05	5
17	0xed	-19
18	0x12	18
19	0xcd	-51
20	0xfb	-5
21	0x09	9
22	0x3a	58
23	0xac	-84
24	0x2e	46
25	0xda	-38
26	0x14	20
27	0xe7	-25
28	0xf2	-14
29	0x08	8
30	0xd2	-46
31	0x0b	11
32	0x1b	27
33	0x22	34
34	0x4f	79
35	0xff	-1
36	0xee	-18
37	0xfd	-3
38	0x29	41
39	0xe7	-25
40	0x1d	29
41	0x01	1
42	0x14	20
43	0xf0	-16
44	0xf3	-13
45	0xd8	-40
46	0xed	-19
47	0x26	38
48	0x19	25
49	0xf3	-13
50	0x22	34
51	0xc5	-59
52	0x2d	45
53	0xf6	-10
54	0xe1	-31
55	0xf6	-10
56	0x02	2
57	0xee	-18
58	0xf3	-13
59	0x04	4
60	0x1f	31
61	0xe5	-27
62	0x01	1
63	0x0b	11
64	0x14	20
65	0x08	8
66	0xf4	-12
67	0xed	-19
68	0xfb	-5
69	0xd7	-41
70	0xed	-19
71	0xf8	-8
72	0x0e	14
73	0xef	-17
74	0xdd	-35
75	0x1f	31
76	0xea	-22
77	0x15	21
78	0xdc	-36
79	0x37	55
80	0xe8	-24
81	0x00	0
82	0xbb	-69
83	0x2b	43
84	0x34	52
85	0xe2	-30
86	0xfd	-3
87	0x16	22
88	0x0e	14
89	0x1a	26
90	0xe2	-30
91	0x2f	47
92	0x49	73
93	0xcc	-52
94	0xe3	-29
95	0x0a	10
96	0xe4	-28
97	0xe7	-25
98	0xd1	-47
99	0xc6	-58
100	0xf0	-16
101	0xe3	-29
102	0x08	8
103	0xdc	-36
104	0x05	5
105	0xe6	-26
106	0xd7	-41
107	0x01	1
108	0x10	16
109	0x22	34
110	0x00	0
111	0x15	21
112	0xcb	-53
113	0xe7	-25
114	0xf4	-12
115	0xea	-22
116	0x14	20
117	0x4b	75
118	0xa7	-89
119	0x1a	26
120	0xc6	-58
121	0xcc	-52
122	0x2c	44
123	0xd9	-39
124	0xf1	-15
125	0xe7	-25
126	0xf2	-14
127	0xef	-17
128	0x0c	12
129	0x0f	15
130	0x43	67
131	0x4d	77
132	0x37	55
133	0xcf	-49
134	0xd1	-47
135	0xeb	-21
136	0x24	36
137	0x1b	27
138	0xb6	-74
139	0xe3	-29
140	0x1b	27
141	0x08	8
142	0xc3	-61
143	0x2f	47
144	0x4a	74
145	0xc8	-56
146	0xeb	-21
147	0xf5	-11
148	0xef	-17
149	0x20	32
150	0xff	-1
151	0xe1	-31
152	0x3d	61
153	0x3a	58
154	0x1b	27
155	0xfe	-2
156	0x21	33
157	0xc2	-62
158	0xfd	-3
159	0xeb	-21
160	0x2d	45
161	0xb0	-80
162	0xed	-19
163	0xea	-22
164	0x06	6
165	0x09	9
166	0x26	38
167	0xad	-83
168	0xd4	-44
169	0xe1	-31
170	0x01	1
171	0xd4	-44
172	0xf3	-13
173	0xbb	-69
174	0x1a	26
175	0xd2	-46
176	0x03	3
177	0x13	19
178	0xfd	-3
179	0x36	54
180	0x07	7
181	0xba	-70
182	0xe9	-23
183	0x09	9
184	0xe8	-24
185	0xf4	-12
186	0x10	16
187	0xbf	-65
188	0x17	23
189	0x0c	12
190	0x02	2
191	0xf0	-16
192	0xb8	-72
193	0x38	56
194	0xc0	-64
195	0xd3	-45
196	0xe5	-27
197	0x07	7
198	0xbd	-67
199	0xc5	-59
200	0x20	32
201	0xb3	-77
202	0x0f	15
203	0x2c	44
204	0xd2	-46
205	0x09	9
206	0xe7	-25
207	0x06	6
208	0xd1	-47
209	0x0c	12
210	0x40	64
211	0xda	-38
212	0xf2	-14
213	0xf3	-13
214	0xfd	-3
215	0xcd	-51
216	0x2c	44
217	0xf9	-7
218	0xca	-54
219	0xef	-17
220	0x32	50
221	0xf9	-7
222	0xba	-70
223	0x1d	29
224	0xfa	-6
225	0xda	-38
226	0xf1	-15
227	0x44	68
228	0x81	-127
229	0x3e	62
230	0x04	4
231	0x07	7
232	0x07	7
233	0x18	24
234	0x2c	44
235	0xe4	-28
236	0xf4	-12
237	0xb9	-71
238	0x22	34
239	0xd4	-44
240	0xdc	-36
241	0xe1	-31
242	0xd5	-43
243	0x0b	11
244	0xec	-20
245	0x1d	29
246	0xf3	-13
247	0x0a	10
248	0x32	50
249	0xfe	-2
250	0x28	40
251	0xa1	-95
252	0xcf	-49
253	0xf4	-12
254	0xf5	-11
255	0x49	73
