models/Cifar10_CNN_quant.tflite (tflite, 92832 bytes, 5 tensors)

model/dense/MatMul i1 [10, 1600] scale=0.0016250104 zero_point=0
000000 29 e1 40 04 f2 09 f4 ed c9 06 ff 04 fd 18 22 1d
       0.066625424 -0.050375324 0.104000665 0.0065000416 -0.022750145 0.014625094 -0.019500125 -0.030875197 -0.08937557 0.009750063 -0.0016250104 0.0065000416 -0.0048750313 0.03900025 0.055250354 0.047125302
000010 e9 de 0c be 21 e6 fa 0a 07 19 10 ea e8 3c e8 2c
       -0.037375238 -0.055250354 0.019500125 -0.10725068 0.05362534 -0.042250272 -0.009750063 0.016250104 0.011375072 0.04062526 0.026000166 -0.03575023 -0.03900025 0.09750062 -0.03900025 0.07150046
000020 0c 11 e2 ce d4 40 0e fd 05 05 fb f4 dd 39 fc ff
       0.019500125 0.027625177 -0.04875031 -0.08125052 -0.07150046 0.104000665 0.022750145 -0.0048750313 0.008125052 0.008125052 -0.008125052 -0.019500125 -0.056875363 0.092625596 -0.0065000416 -0.0016250104
000030 14 e9 18 bb ec f0 e6 ec fc 2f 32 02 df df 34 18
       0.032500207 -0.037375238 0.03900025 -0.11212572 -0.032500207 -0.026000166 -0.042250272 -0.032500207 -0.0065000416 0.07637549 0.08125052 0.0032500208 -0.05362534 -0.05362534 0.084500544 0.03900025
000040 0a fb 0c fd ee f0 0c fc 02 05 14 e3 04 f8 1d e0
       0.016250104 -0.008125052 0.019500125 -0.0048750313 -0.029250188 -0.026000166 0.019500125 -0.0065000416 0.0032500208 0.008125052 0.032500207 -0.047125302 0.0065000416 -0.013000083 0.047125302 -0.052000333
000050 1a fd fb d3 f7 cd 15 08 14 11 e1 15 f2 e8 e3 0c
       0.042250272 -0.0048750313 -0.008125052 -0.07312547 -0.014625094 -0.08287553 0.03412522 0.013000083 0.032500207 0.027625177 -0.050375324 0.03412522 -0.022750145 -0.03900025 -0.047125302 0.019500125
000060 18 13 12 00 fc f3 f0 f6 09 08 02 e4 03 0f 04 da
       0.03900025 0.030875197 0.029250188 0.0 -0.0065000416 -0.021125136 -0.026000166 -0.016250104 0.014625094 0.013000083 0.0032500208 -0.04550029 0.0048750313 0.024375156 0.0065000416 -0.061750393
000070 07 0d f4 d5 e3 e8 0f f8 ca fe 0d 0d 0e ed f1 17
       0.011375072 0.021125136 -0.019500125 -0.06987545 -0.047125302 -0.03900025 0.024375156 -0.013000083 -0.08775056 -0.0032500208 0.021125136 0.021125136 0.022750145 -0.030875197 -0.024375156 0.037375238
000080 ef d0 0c f1 e4 02 f7 0c 02 eb 08 11 0a fa e1 f7
       -0.027625177 -0.0780005 0.019500125 -0.024375156 -0.04550029 0.0032500208 -0.014625094 0.019500125 0.0032500208 -0.03412522 0.013000083 0.027625177 0.016250104 -0.009750063 -0.050375324 -0.014625094
000090 fe f3 01 0c 0e 3a c9 f5 20 e5 09 fe 19 f0 06 15
       -0.0032500208 -0.021125136 0.0016250104 0.019500125 0.022750145 0.094250605 -0.08937557 -0.017875114 0.052000333 -0.04387528 0.014625094 -0.0032500208 0.04062526 -0.026000166 0.009750063 0.03412522
0000a0 f0 e9 f2 ea 12 08 2a f4 f8 10 05 c8 e8 ea e8 d3
       -0.026000166 -0.037375238 -0.022750145 -0.03575023 0.029250188 0.013000083 0.06825044 -0.019500125 -0.013000083 0.026000166 0.008125052 -0.09100058 -0.03900025 -0.03575023 -0.03900025 -0.07312547
0000b0 f5 15 04 fc d4 e8 09 f4 d7 01 42 0a f3 f6 0b fa
       -0.017875114 0.03412522 0.0065000416 -0.0065000416 -0.07150046 -0.03900025 0.014625094 -0.019500125 -0.066625424 0.0016250104 0.10725068 0.016250104 -0.021125136 -0.016250104 0.017875114 -0.009750063
0000c0 11 1c 35 02 1a 04 06 00 e9 f3 08 22 22 ff ff 08
       0.027625177 0.04550029 0.08612555 0.0032500208 0.042250272 0.0065000416 0.009750063 0.0 -0.037375238 -0.021125136 0.013000083 0.055250354 0.055250354 -0.0016250104 -0.0016250104 0.013000083
0000d0 12 2a 1e ce 00 06 d1 13 0a d4 f1 1c 29 16 e6 11
       0.029250188 0.06825044 0.04875031 -0.08125052 0.0 0.009750063 -0.07637549 0.030875197 0.016250104 -0.07150046 -0.024375156 0.04550029 0.066625424 0.03575023 -0.042250272 0.027625177
0000e0 2a fe f9 f1 13 ed f7 e2 23 dc fc ed 06 fc e1 1e
       0.06825044 -0.0032500208 -0.011375072 -0.024375156 0.030875197 -0.030875197 -0.014625094 -0.04875031 0.056875363 -0.058500376 -0.0065000416 -0.030875197 0.009750063 -0.0065000416 -0.050375324 0.04875031
0000f0 05 f1 f6 fa ef fb fa e1 07 10 24 d1 fd e9 16 f4
       0.008125052 -0.024375156 -0.016250104 -0.009750063 -0.027625177 -0.008125052 -0.009750063 -0.050375324 0.011375072 0.026000166 0.058500376 -0.07637549 -0.0048750313 -0.037375238 0.03575023 -0.019500125

model/conv2d/Conv2D i1 [32, 3, 3, 3]
000000 da cf 3a a8 e5 07 cf 8a a6 ef 36 55 2c 21 93 f9
       -38 -49 58 -88 -27 7 -49 -118 -90 -17 54 85 44 33 -109 -7
000010 60 0f 05 77 64 7f 66 10 1c 6a fe 95 4f c6 74 4f
       96 15 5 119 100 127 102 16 28 106 -2 -107 79 -58 116 79
000020 aa e9 56 0e 8f bb 53 c2 84 9e f8 40 3d da 81 07
       -86 -23 86 14 -113 -69 83 -62 -124 -98 -8 64 61 -38 -127 7
000030 0f ce 40 8a 1c 20 3a ee ec c9 32 84 08 f0 e6 c3
       15 -50 64 -118 28 32 58 -18 -20 -55 50 -124 8 -16 -26 -61
000040 eb 51 62 66 7f 5d 5c df cf cd 89 3c bd b9 f0 ef
       -21 81 98 102 127 93 92 -33 -49 -51 -119 60 -67 -71 -16 -17
000050 0a 9a 42 64 33 73 05 fe 97 ab 72 03 0c cd 02 4a
       10 -102 66 100 51 115 5 -2 -105 -85 114 3 12 -51 2 74
000060 f6 81 42 b2 12 00 07 4e d0 75 90 9e d2 8d 9c fb
       -10 -127 66 -78 18 0 7 78 -48 117 -112 -98 -46 -115 -100 -5
000070 fa 22 9c ea ca c7 4a 36 e6 70 f9 ba 25 42 d9 3f
       -6 34 -100 -22 -54 -57 74 54 -26 112 -7 -70 37 66 -39 63
000080 de 5c 30 e9 7f 20 db 70 24 6f 64 2c 85 1e 44 e7
       -34 92 48 -23 127 32 -37 112 36 111 100 44 -123 30 68 -25
000090 ae cb 81 da f7 c2 8d fe 2e e3 30 63 bf 1a 30 eb
       -82 -53 -127 -38 -9 -62 -115 -2 46 -29 48 99 -65 26 48 -21
0000a0 03 f6 d4 e9 cc 6a e6 ab 9f e5 41 81 ae 01 1d 4b
       3 -10 -44 -23 -52 106 -26 -85 -97 -27 65 -127 -82 1 29 75
0000b0 e5 6a 87 fc 5f 6a 5b 6c 6d aa 08 30 d6 a1 63 a0
       -27 106 -121 -4 95 106 91 108 109 -86 8 48 -42 -95 99 -96
0000c0 c2 13 ef 51 0a 30 cb 60 a1 12 09 3b 64 69 68 fc
       -62 19 -17 81 10 48 -53 96 -95 18 9 59 100 105 104 -4
0000d0 b1 81 02 de 2b 36 d6 0c b8 1d f0 d1 ee 32 54 26
       -79 -127 2 -34 43 54 -42 12 -72 29 -16 -47 -18 50 84 38
0000e0 36 32 5d 47 81 46 47 56 3a 16 a0 df c4 47 cb 1c
       54 50 93 71 -127 70 71 86 58 22 -96 -33 -60 71 -53 28
0000f0 e7 17 da b6 a1 24 93 fd c8 69 f8 b2 2a 04 73 9e
       -25 23 -38 -74 -95 36 -109 -3 -56 105 -8 -78 42 4 115 -98

model/conv2d_1/Conv2D i1 [32, 3, 3, 32]
000000 3f 13 3f 25 e9 07 b6 ee de 2b 07 1f 2b c1 12 5c
       63 19 63 37 -23 7 -74 -18 -34 43 7 31 43 -63 18 92
000010 e1 ec df df 1b 37 02 ee b5 eb 38 33 3a f1 ff f3
       -31 -20 -33 -33 27 55 2 -18 -75 -21 56 51 58 -15 -1 -13
000020 b2 ee c4 ae b3 e9 29 39 d3 10 40 ed f1 01 2e 23
       -78 -18 -60 -82 -77 -23 41 57 -45 16 64 -19 -15 1 46 35
000030 fb ce b9 bc ec 1b ed bd ca cc cf 35 d0 c9 10 e3
       -5 -50 -71 -68 -20 27 -19 -67 -54 -52 -49 53 -48 -55 16 -29
000040 ca 22 b9 27 d4 29 09 ed cd f3 3e cb 07 1c 98 0c
       -54 34 -71 39 -44 41 9 -19 -51 -13 62 -53 7 28 -104 12
000050 e3 dc e0 05 23 64 28 e0 16 06 e6 5f fa c2 45 e9
       -29 -36 -32 5 35 100 40 -32 22 6 -26 95 -6 -62 69 -23
000060 12 ca 05 fc 1d d5 04 9d cf 1f fe 0d 3b b6 20 13
       18 -54 5 -4 29 -43 4 -99 -49 31 -2 13 59 -74 32 19
000070 0c 13 0d d4 b0 ab a1 1e d9 06 cc e9 33 f7 1b db
       12 19 13 -44 -80 -85 -95 30 -39 6 -52 -23 51 -9 27 -37
000080 23 ce 07 1d 35 32 1e 3e 89 25 ba 4d ea e4 44 24
       35 -50 7 29 53 50 30 62 -119 37 -70 77 -22 -28 68 36
000090 0c fb e4 11 30 4e e6 d4 9f e2 81 50 2d d2 cb df
       12 -5 -28 17 48 78 -26 -44 -97 -30 -127 80 45 -46 -53 -33
0000a0 cd f9 bf 06 e4 33 b9 c0 ad 2f be 0b a9 01 26 06
       -51 -7 -65 6 -28 51 -71 -64 -83 47 -66 11 -87 1 38 6
0000b0 f4 02 00 f7 29 0e 2f f9 27 b8 94 41 de 2c cf ba
       -12 2 0 -9 41 14 47 -7 39 -72 -108 65 -34 44 -49 -70
0000c0 2c dc 4f 50 c7 f5 28 e2 01 fc 19 12 2c 2e 09 d1
       44 -36 79 80 -57 -11 40 -30 1 -4 25 18 44 46 9 -47
0000d0 13 e7 fe d9 b8 1c c3 f8 d4 1e 04 4b d5 6d ea c5
       19 -25 -2 -39 -72 28 -61 -8 -44 30 4 75 -43 109 -22 -59
0000e0 f4 3a 08 57 39 03 34 e0 09 de 2d 23 c1 c0 29 aa
       -12 58 8 87 57 3 52 -32 9 -34 45 35 -63 -64 41 -86
0000f0 2d 26 2f f2 c5 fe b9 16 b8 47 b6 40 3d e4 f0 d9
       45 38 47 -14 -59 -2 -71 22 -72 71 -74 64 61 -28 -16 -39

model/conv2d_2/Conv2D i1 [64, 3, 3, 32]
000000 42 e6 15 46 d4 dd e0 c2 0a 2a 4e d0 f7 26 eb 19
       66 -26 21 70 -44 -35 -32 -62 10 42 78 -48 -9 38 -21 25
000010 d2 1e e6 e3 f3 21 d7 36 11 da be 04 14 06 f9 1b
       -46 30 -26 -29 -13 33 -41 54 17 -38 -66 4 20 6 -7 27
000020 16 b2 2d 51 c7 bc e7 bd da 49 2c bc f1 d8 e4 52
       22 -78 45 81 -57 -68 -25 -67 -38 73 44 -68 -15 -40 -28 82
000030 35 4e ec ed 08 e1 3d 4c 08 df d3 7f 25 24 db 1a
       53 78 -20 -19 8 -31 61 76 8 -33 -45 127 37 36 -37 26
000040 10 51 26 db 15 3d e2 d5 00 00 10 c1 a5 f9 dc f9
       16 81 38 -37 21 61 -30 -43 0 0 16 -63 -91 -7 -36 -7
000050 1b c2 45 fe d5 2d 57 30 61 2b 2e f2 c7 f2 d2 da
       27 -62 69 -2 -43 45 87 48 97 43 46 -14 -57 -14 -46 -38
000060 3c 4d 13 09 c7 48 c0 1b a8 5a f5 0c c7 b9 1c 08
       60 77 19 9 -57 72 -64 27 -88 90 -11 12 -57 -71 28 8
000070 d5 02 19 1a 07 e1 b0 33 01 4c da 05 c5 9d b9 61
       -43 2 25 26 7 -31 -80 51 1 76 -38 5 -59 -99 -71 97
000080 42 01 c9 4b 25 f4 e4 0d 1b 9b 3d 53 ea 27 4a f7
       66 1 -55 75 37 -12 -28 13 27 -101 61 83 -22 39 74 -9
000090 e5 d0 f9 cd 06 d8 d6 55 34 c2 21 43 53 ef ab 29
       -27 -48 -7 -51 6 -40 -42 85 52 -62 33 67 83 -17 -85 41
0000a0 2e 18 16 d1 0d ef a8 17 0b 9d e8 be e5 15 d3 34
       46 24 22 -47 13 -17 -88 23 11 -99 -24 -66 -27 21 -45 52
0000b0 0e ca b5 13 42 26 58 5c 1f db d8 e7 dc 3d 37 0c
       14 -54 -75 19 66 38 88 92 31 -37 -40 -25 -36 61 55 12
0000c0 4c 18 09 2b dc 48 dc f1 e9 eb 38 f4 2e c1 26 ff
       76 24 9 43 -36 72 -36 -15 -23 -21 56 -12 46 -63 38 -1
0000d0 c9 fe 19 44 2c f7 b8 e4 cd 59 e1 d7 35 ed b4 3b
       -55 -2 25 68 44 -9 -72 -28 -51 89 -31 -41 53 -19 -76 59
0000e0 71 df f0 32 2f 13 97 f0 f2 84 20 21 3e ec 09 02
       113 -33 -16 50 47 19 -105 -16 -14 -124 32 33 62 -20 9 2
0000f0 e1 2e 2e 05 2d 0a cd e4 e6 da ec de a7 da 10 32
       -31 46 46 5 45 10 -51 -28 -26 -38 -20 -34 -89 -38 16 50

model/conv2d_3/Conv2D i1 [64, 3, 3, 64]
000000 00 c7 10 11 f9 16 fc 00 d4 ef f5 68 b7 f7 c2 e3
       0 -57 16 17 -7 22 -4 0 -44 -17 -11 104 -73 -9 -62 -29
000010 e5 3c 4f a9 0e 29 e4 c6 2b dc d1 30 0e e3 cb fc
       -27 60 79 -87 14 41 -28 -58 43 -36 -47 48 14 -29 -53 -4
000020 38 06 0b ae c6 fb bd 02 35 2a 37 bb 02 fd 44 f6
       56 6 11 -82 -58 -5 -67 2 53 42 55 -69 2 -3 68 -10
000030 d2 f5 66 12 2e d2 13 21 10 ae 06 0f 2e 3b 38 09
       -46 -11 102 18 46 -46 19 33 16 -82 6 15 46 59 56 9
000040 05 21 33 ba 56 04 36 05 13 de ea f4 c3 08 26 f0
       5 33 51 -70 86 4 54 5 19 -34 -22 -12 -61 8 38 -16
000050 c4 24 be c3 0b 5a eb b7 fe 0b fd ed 16 15 14 ff
       -60 36 -66 -61 11 90 -21 -73 -2 11 -3 -19 22 21 20 -1
000060 d0 8f 3d ca c0 03 3c 18 f9 ee 26 e9 d0 ff 2d 18
       -48 -113 61 -54 -64 3 60 24 -7 -18 38 -23 -48 -1 45 24
000070 39 b5 c8 d4 b6 f8 fa f0 2e 0d 19 49 0c 07 24 c5
       57 -75 -56 -44 -74 -8 -6 -16 46 13 25 73 12 7 36 -59
000080 ff 09 06 c1 4b d3 03 f8 0c 07 cb af b7 28 2b 0e
       -1 9 6 -63 75 -45 3 -8 12 7 -53 -81 -73 40 43 14
000090 1e e2 0e 22 d0 22 ad 7a f8 00 b0 e3 15 c4 f7 d3
       30 -30 14 34 -48 34 -83 122 -8 0 -80 -29 21 -60 -9 -45
0000a0 d5 d5 39 14 13 db e6 f6 3c e2 d4 28 f9 c6 df 9b
       -43 -43 57 20 19 -37 -26 -10 60 -30 -44 40 -7 -58 -33 -101
0000b0 f7 e7 b1 da bd 32 f2 44 3b 16 40 12 d0 1f ed fc
       -9 -25 -79 -38 -67 50 -14 68 59 22 64 18 -48 31 -19 -4
0000c0 a5 2e f9 f6 e6 fc e7 1e 48 34 9c a7 29 4a 21 2b
       -91 46 -7 -10 -26 -4 -25 30 72 52 -100 -89 41 74 33 43
0000d0 f7 0c b4 d0 f9 81 01 dd 3d f7 b8 fc 28 37 da df
       -9 12 -76 -48 -7 -127 1 -35 61 -9 -72 -4 40 55 -38 -33
0000e0 be f4 c6 e6 a1 14 2a 2c 17 f3 a4 0d 53 c0 21 e0
       -66 -12 -58 -26 -95 20 42 44 23 -13 -92 13 83 -64 33 -32
0000f0 c8 b9 53 93 09 f6 d4 e7 56 e7 ec de 37 08 d6 56
       -56 -71 83 -109 9 -10 -44 -25 86 -25 -20 -34 55 8 -42 86
